dataset/raw_b_1689681482.npy (npy, 699328 bytes, 1 tensors)

array f8 [874, 100]
0.577887773513794 0.5743680000305176 -6.498750053651747e-07 0.0 0.516779899597168 0.5404118895530701 -0.024365434423089027 0.0
0.46438392996788025 0.42687687277793884 -0.03529679775238037 0.0 0.45915600657463074 0.3023945093154907 -0.0480104424059391 0.0
0.4855317175388336 0.21779245138168335 -0.054197341203689575 0.0 0.5002137422561646 0.3025434911251068 0.008494175039231777 0.0
0.48403412103652954 0.2345053255558014 -0.03082576021552086 0.0 0.48642709851264954 0.320928692817688 -0.045169930905103683 0.0
0.4977503716945648 0.34643006324768066 -0.048360276967287064 0.0 0.5397811532020569 0.29913824796676636 0.004323002882301807 0.0
0.5208439826965332 0.2304556965827942 -0.03687393292784691 0.0 0.5214446187019348 0.3562421500682831 -0.03588880971074104 0.0
0.5354166030883789 0.3622923493385315 -0.021462876349687576 0.0 0.5818813443183899 0.3087449073791504 -0.009347322396934032 0.0
0.5667768716812134 0.25904667377471924 -0.05385975167155266 0.0 0.5614657998085022 0.3793187141418457 -0.03632655739784241 0.0
0.5717766284942627 0.38287875056266785 -0.010569127276539803 0.0 0.6277433633804321 0.3289627432823181 -0.025699090212583542 0.0
0.610418975353241 0.28158241510391235 -0.048635631799697876 0.0 0.6014772653579712 0.3644188344478607 -0.034391604363918304 0.0
0.6096979975700378 0.3790821135044098 -0.016060983762145042 0.0 37.99240493774414 22.282594680786133 19.73171043395996 31.16441535949707
139.6021728515625 22.32395362854004 31.752391815185547 147.09100341796875 72.72188568115234 41.79385757446289 143.3570556640625 75.96965789794922
35.529693603515625 150.99176025390625 48.16404342651367 1.0 0.573680579662323 0.6122317314147949 -6.565577450601268e-07 0.0
0.5169974565505981 0.5874060392379761 -0.024247195571660995 0.0 0.4582797586917877 0.47919660806655884 -0.034513358026742935 0.0
0.4477499723434448 0.3604993224143982 -0.04631919041275978 0.0 0.4735575318336487 0.2838897407054901 -0.05124591663479805 0.0
0.4923127591609955 0.33670204877853394 0.0031129412818700075 0.0 0.48025327920913696 0.24979588389396667 -0.040014006197452545 0.0
0.480998694896698 0.336852490901947 -0.05719882249832153 0.0 0.48808979988098145 0.3777104616165161 -0.06090080365538597 0.0
0.5355374813079834 0.3373658359050751 -0.0017740516923367977 0.0 0.5199629664421082 0.25755318999290466 -0.04627526178956032 0.0
0.518832266330719 0.381805956363678 -0.04749778285622597 0.0 0.5276049375534058 0.4001997113227844 -0.033689793199300766 0.0
0.5802226066589355 0.3493477404117584 -0.01604495197534561 0.0 0.5672336220741272 0.2988787889480591 -0.0609980933368206 0.0
0.5616854429244995 0.4149623513221741 -0.04434684291481972 0.0 0.5667032599449158 0.4243624806404114 -0.018910637125372887 0.0
0.6278102397918701 0.37028777599334717 -0.03303072229027748 0.0 0.6104373335838318 0.32027819752693176 -0.055439017713069916 0.0
0.6027199029922485 0.4021390974521637 -0.04046135023236275 0.0 0.6083183884620667 0.41953811049461365 -0.021524954587221146 0.0
40.28395462036133 23.334674835205078 23.708328247070312 28.0384521484375 141.96897888183594 11.066271781921387 28.48225975036621 148.72267150878906
42.404930114746094 39.93097686767578 143.97825622558594 62.66169357299805 34.15104675292969 153.37977600097656 40.814945220947266 1.0
0.5556238293647766 0.6981855630874634 -7.566166004835395e-07 0.0 0.4978559911251068 0.6744720935821533 -0.028377484530210495 0.0
0.4376698136329651 0.5641000866889954 -0.040731824934482574 0.0 0.41836032271385193 0.4550468921661377 -0.05354562774300575 0.0
0.44108402729034424 0.3722586929798126 -0.05960700660943985 0.0 0.4747133255004883 0.39772680401802063 -0.0032321291510015726 0.0
0.4580119848251343 0.29779332876205444 -0.05053135007619858 0.0 0.45400384068489075 0.400088369846344 -0.07148654013872147 0.0
0.45901572704315186 0.461418479681015 -0.0768214762210846 0.0 0.5224599242210388 0.3985406160354614 -0.008126429282128811 0.0
0.5039463639259338 0.30428260564804077 -0.057633671909570694 0.0 0.49656403064727783 0.43998807668685913 -0.06264519691467285 0.0
0.5050950050354004 0.49094006419181824 -0.04970189556479454 0.0 0.5697867274284363 0.42083877325057983 -0.022225569933652878 0.0
00000000: 0000 0080 0e7e e23f 0000 0000 3961 e23f
00000010: 0000 0040 62ce a5be 0000 0000 0000 0000
00000020: 0000 0000 7689 e03f 0000 00e0 0d4b e13f
00000030: 0000 00a0 40f3 98bf 0000 0000 0000 0000
00000040: 0000 0060 77b8 dd3f 0000 0060 f351 db3f
00000050: 0000 0000 6c12 a2bf 0000 0000 0000 0000
00000060: 0000 00e0 cf62 dd3f 0000 0080 6e5a d33f
00000070: 0000 0020 d394 a8bf 0000 0000 0000 0000
00000080: 0000 00a0 f312 df3f 0000 0080 9fe0 cb3f
00000090: 0000 0000 c1bf abbf 0000 0000 0000 0000
000000a0: 0000 0040 c001 e03f 0000 0060 df5c d33f
000000b0: 0000 00e0 6465 813f 0000 0000 0000 0000
000000c0: 0000 0040 6afa de3f 0000 0040 4504 ce3f
000000d0: 0000 00c0 c990 9fbf 0000 0000 0000 0000
000000e0: 0000 0020 9f21 df3f 0000 0080 188a d43f
000000f0: 0000 0060 8320 a7bf 0000 0000 0000 0000
00000100: 0000 0060 24db df3f 0000 0000 e92b d63f
00000110: 0000 00a0 adc2 a8bf 0000 0000 0000 0000
00000120: 0000 0020 e345 e13f 0000 00c0 1425 d33f
00000130: 0000 0040 ffb4 713f 0000 0000 0000 0000
00000140: 0000 0000 c1aa e03f 0000 0080 927f cd3f
00000150: 0000 00e0 23e1 a2bf 0000 0000 0000 0000
00000160: 0000 00a0 acaf e03f 0000 00e0 abcc d63f
00000170: 0000 00a0 0460 a2bf 0000 0000 0000 0000
00000180: 0000 0000 2222 e13f 0000 0040 cc2f d73f
00000190: 0000 0040 5dfa 95bf 0000 0000 0000 0000
000001a0: 0000 00a0 c59e e23f 0000 0000 7ac2 d33f
000001b0: 0000 0060 b024 83bf 0000 0000 0000 0000
000001c0: 0000 0040 0923 e23f 0000 0080 3894 d03f
000001d0: 0000 0060 8193 abbf 0000 0000 0000 0000
000001e0: 0000 0020 87f7 e13f 0000 0000 c246 d83f
000001f0: 0000 0000 6599 a2bf 0000 0000 0000 0000
00000200: 0000 0080 fe4b e23f 0000 00e0 1581 d83f
00000210: 0000 0040 44a5 85bf 0000 0000 0000 0000
00000220: 0000 0040 7916 e43f 0000 00c0 b90d d53f
00000230: 0000 00c0 dc50 9abf 0000 0000 0000 0000
00000240: 0000 0060 8d88 e33f 0000 0040 7205 d23f
00000250: 0000 0000 c5e6 a8bf 0000 0000 0000 0000
00000260: 0000 0040 4d3f e33f 0000 0060 a352 d73f
00000270: 0000 00c0 c69b a1bf 0000 0000 0000 0000
00000280: 0000 0060 a582 e33f 0000 00a0 e142 d83f
00000290: 0000 0060 4a72 90bf 0000 0000 0000 0000
000002a0: 0000 0020 07ff 4240 0000 0020 5848 3640
000002b0: 0000 0060 51bb 3340 0000 0020 172a 3f40
000002c0: 0000 0000 4573 6140 0000 00a0 ee52 3640
000002d0: 0000 00c0 9cc0 3f40 0000 0080 e962 6240
000002e0: 0000 0060 332e 5240 0000 0020 9de5 4440
000002f0: 0000 0000 6deb 6140 0000 00e0 0efe 5240
00000300: 0000 0000 cdc3 4140 0000 0080 bcdf 6240
00000310: 0000 0060 ff14 4840 0000 0000 0000 f03f
00000320: 0000 0060 975b e23f 0000 0000 6797 e33f
00000330: 0000 00c0 c907 a6be 0000 0000 0000 0000
00000340: 0000 0040 3e8b e03f 0000 00c0 07cc e23f
00000350: 0000 00c0 41d4 98bf 0000 0000 0000 0000
00000360: 0000 00a0 7454 dd3f 0000 0040 28ab de3f
00000370: 0000 0020 bcab a1bf 0000 0000 0000 0000
00000380: 0000 0080 efa7 dc3f 0000 00c0 6b12 d73f
00000390: 0000 0020 26b7 a7bf 0000 0000 0000 0000
000003a0: 0000 0040 c44e de3f 0000 00e0 3f2b d23f
000003b0: 0000 00a0 e73c aabf 0000 0000 0000 0000
000003c0: 0000 0060 0d82 df3f 0000 00c0 868c d53f
000003d0: 0000 00a0 4f80 693f 0000 0000 0000 0000
000003e0: 0000 0040 78bc de3f 0000 00c0 4ff9 cf3f
000003f0: 0000 0040 b77c a4bf 0000 0000 0000 0000
00000400: 0000 00c0 aec8 de3f 0000 00c0 fd8e d53f
00000410: 0000 0000 2a49 adbf 0000 0000 0000 0000
00000420: 0000 0000 dd3c df3f 0000 0080 682c d83f
00000430: 0000 00e0 632e afbf 0000 0000 0000 0000
00000440: 0000 0080 1f23 e13f 0000 00e0 6697 d53f
00000450: 0000 0080 e910 5dbf 0000 0000 0000 0000
00000460: 0000 0060 89a3 e03f 0000 0060 c07b d03f
00000470: 0000 0020 64b1 a7bf 0000 0000 0000 0000
00000480: 0000 0020 469a e03f 0000 0040 826f d83f
00000490: 0000 0020 a151 a8bf 0000 0000 0000 0000
000004a0: 0000 00c0 23e2 e03f 0000 0040 df9c d93f
000004b0: 0000 00e0 c93f a1bf 0000 0000 0000 0000
000004c0: 0000 0000 2f91 e23f 0000 00a0 b65b d63f
000004d0: 0000 0080 166e 90bf 0000 0000 0000 0000
000004e0: 0000 0020 c726 e23f 0000 0080 d420 d33f
000004f0: 0000 0060 243b afbf 0000 0000 0000 0000
00000500: 0000 00c0 53f9 e13f 0000 0040 be8e da3f
00000510: 0000 0020 a1b4 a6bf 0000 0000 0000 0000
00000520: 0000 00e0 6e22 e23f 0000 0040 c128 db3f
00000530: 0000 0060 4f5d 93bf 0000 0000 0000 0000
00000540: 0000 0080 0517 e43f 0000 0080 cbb2 d73f
00000550: 0000 0020 67e9 a0bf 0000 0000 0000 0000
00000560: 0000 00e0 b388 e33f 0000 0020 707f d43f
00000570: 0000 00c0 8062 acbf 0000 0000 0000 0000
00000580: 0000 0040 7b49 e33f 0000 00a0 a5bc d93f
00000590: 0000 00a0 59b7 a4bf 0000 0000 0000 0000
000005a0: 0000 0020 5877 e33f 0000 0060 b6d9 da3f
000005b0: 0000 0040 a30a 96bf 0000 0000 0000 0000
000005c0: 0000 00a0 5824 4440 0000 0040 ad55 3740
000005d0: 0000 0000 55b5 3740 0000 0000 d809 3c40
000005e0: 0000 00e0 01bf 6140 0000 0060 ee21 2640
000005f0: 0000 0060 757b 3c40 0000 0020 2097 6240
00000600: 0000 00c0 d433 4540 0000 0040 2af7 4340
00000610: 0000 00e0 4dff 6140 0000 0060 b254 4f40
00000620: 0000 0080 5513 4140 0000 0020 272c 6340
00000630: 0000 0020 5068 4440 0000 0000 0000 f03f
00000640: 0000 00a0 abc7 e13f 0000 0040 8957 e63f
00000650: 0000 0080 4963 a9be 0000 0000 0000 0000
00000660: 0000 0060 dfdc df3f 0000 0080 4695 e53f
00000670: 0000 00c0 fc0e 9dbf 0000 0000 0000 0000
00000680: 0000 0040 c802 dc3f 0000 00a0 1b0d e23f
00000690: 0000 0040 cdda a4bf 0000 0000 0000 0000
000006a0: 0000 0060 6ac6 da3f 0000 0000 7d1f dd3f
000006b0: 0000 0020 556a abbf 0000 0000 0000 0000
000006c0: 0000 0080 b83a dc3f 0000 0020 16d3 d73f
000006d0: 0000 0040 cf84 aebf 0000 0000 0000 0000
000006e0: 0000 0000 b461 de3f 0000 0020 5b74 d93f
000006f0: 0000 0020 447a 6abf 0000 0000 0000 0000
00000700: 0000 0080 1150 dd3f 0000 00c0 0b0f d33f
00000710: 0000 00c0 3edf a9bf 0000 0000 0000 0000
00000720: 0000 0020 660e dd3f 0000 0040 0c9b d93f
00000730: 0000 0020 f14c b2bf 0000 0000 0000 0000
00000740: 0000 0080 8360 dd3f 0000 0060 e187 dd3f
00000750: 0000 0080 92aa b3bf 0000 0000 0000 0000
00000760: 0000 00e0 fdb7 e03f 0000 0080 b081 d93f
00000770: 0000 00e0 96a4 80bf 0000 0000 0000 0000
00000780: 0000 0020 5420 e03f 0000 00c0 5d79 d33f
00000790: 0000 0020 2982 adbf 0000 0000 0000 0000
000007a0: 0000 0080 b4c7 df3f 0000 00c0 c328 dc3f
000007b0: 0000 0000 8409 b0bf 0000 0000 0000 0000
000007c0: 0000 0000 bd29 e03f 0000 00e0 8f6b df3f
000007d0: 0000 00e0 8672 a9bf 0000 0000 0000 0000
000007e0: 0000 0060 b13b e23f 0000 00c0 05ef da3f
000007f0: 0000 00c0 4cc2 96bf 0000 0000 0000 0000
